…
   "metadata": {
    "colab": {
     "base_uri": "https://localhost:8080/",
     "height": 748
    },
    "colab_type": "code",
    "id": "hlDVmkg-lJg8",
    "outputId": "a1dd1ef6-3deb-4cea-e06c-8c724e0b038d"
   },
   "outputs": [
    {
     "name": "stdout",
     "output_type": "stream",
     "text": [
      "Model: \"sequential_27\"\n",
      "_________________________________________________________________\n",
      "Layer (type)                 Output Shape              Param #   \n",
      "=================================================================\n",
      "conv2d_4 (Conv2D)            (None, 28, 28, 64)        320       \n",
      "_________________________________________________________________\n",
      "max_pooling2d_4 (MaxPooling2 (None, 14, 14, 64)        0         \n",
      "_________________________________________________________________\n",
      "conv2d_5 (Conv2D)            (None, 14, 14, 32)        8224      \n",
      "_________________________________________________________________\n",
      "max_pooling2d_5 (MaxPooling2 (None, 7, 7, 32)          0         \n",
      "_________________________________________________________________\n",
      "flatten_26 (Flatten)         (None, 1568)              0         \n",
      "_________________________________________________________________\n",
      "dense_52 (Dense)             (None, 256)               401664    \n",
      "_________________________________________________________________\n",
      "dense_53 (Dense)             (None, 10)                2570      \n",
      "=================================================================\n",
      "Total params: 412,778\n",
      "Trainable params: 412,778\n",
      "Non-trainable params: 0\n",
      "_________________________________________________________________\n",
      "Epoch 1/10\n",
      "63/63 [==============================] - 5s 81ms/step - loss: 1.0077 - accuracy: 0.6263 - val_loss: 0.6136 - val_accuracy: 0.7758\n",
…
